…
with 3072 hidden units, to produce our final output, which will again be a vector with 768 units per token | . Let&#39;s briefly look at each major building block of the model architecture. We start with the embedding layer, which maps each vocabulary token to a 768-long embedding. We can also see position embeddings, which are trained to represent the ordering of words in a sequence, and token type embeddings, which are used if we want to distinguish between two sequences (for example question and context). . model = BertModel(config) print(model.embeddings) . BertEmbeddings( (word_embeddings): Embedding(30522, 768, padding_idx=0) (position_embeddings): Embedding(512, 768) (token_type_embeddings): Embedding(2, 768) (LayerNorm): LayerNorm((768,), eps=1e-12, elementwise_affine=True) (dropout): Dropout(p=0.1, inplace=False) ) . Then, we pass the embeddings through 12 layers of computation. This starts with self-attention, is followed by an intermediate dense layer with hidden size 3072, and ends with sequence output that we have already seen above. Usually, we will deal with the last hidden state, i.e. the 12th layer. However, to achieve better results, we may sometimes use the layers below as well to represent our sequences, for example by concatenating the last 4 hidden states. . print(f&#39;There are {len(model.encoder.layer)} layers like this in the model architecture:&#39;) print(&#39;&#39;) print(model.encoder.layer[0]) . There are 12 layers like this in the model architecture: BertLayer( (attention): BertAttention( (self): BertSelfAttention( (query): Linear(in_features=768, out_features=768, bias=True) (key): Linear(in_features=768, out_features=768, bias=True) (value): Linear(in_features=768, out_features=768, bias=True) (dropout): Dropout(p=0.1, inplace=False) ) (output): BertSelfOutput( (dense): Linear(in_features=768, out_features=768, bias=True) (LayerNorm): LayerNorm((768,), eps=1e-12, elementwise_affine=True) (dropout): Dropout(p=0.1, inplace=False) ) ) (intermediate): BertIntermediate( (dense): Linear(in_features=768, out_features=3072, bias=True) ) (output): BertOutput( (dense): Linear(in_features=3072, out_features=768, bias=True) (LayerNorm): LayerNorm((768,), eps=1e-12, elementwise_affine=True) (dropout): Dropout(p=0.1, inplace=False) ) ) . Finally, we have the pooled output, which is used in pre-training for the NSP task, and corresponds to the [CLS] token hidden state that goes through another linear layer. . print(model.pooler) . BertPooler( (dense): Linear(in_features=768, out_features=768, bias=True) (activation): Tanh() ) . In this overview, I haven&#39;t explained at all the self-attention mechanism, or the detailed inner workings of BERT. If you&#39;d like to learn further, here are some materials that I have found very useful. . Chris Mccormick BERT Research Series on Youtube | Jay Alammar A Visual Guide to Using BERT for the First Time | Jay Alammar The Illustrated Transformer | Peter Bloem Transformers from Scratch | .",
…
